…
t I found that it performed really well out of the box. . Loss is binary cross-entropy so we need to scale the data in range 0-1 with min max scaler: . from sklearn.preprocessing import MinMaxScaler scale = MinMaxScaler() scaled_umap_data = scale.fit_transform(umap_data) embedder = ParametricUMAP() embedding = embedder.fit_transform(scaled_umap_data) embedder.encoder.summary() . Model: &#34;sequential_11&#34; _________________________________________________________________ Layer (type) Output Shape Param # ================================================================= flatten_11 (Flatten) (None, 10) 0 _________________________________________________________________ dense_33 (Dense) (None, 100) 1100 _________________________________________________________________ dense_34 (Dense) (None, 100) 10100 _________________________________________________________________ dense_35 (Dense) (None, 100) 10100 _________________________________________________________________ z (Dense) (None, 2) 202 ================================================================= Total params: 21,502 Trainable params: 21,502 Non-trainable params: 0 _________________________________________________________________ . Conclusion . Parametric UMAP was similar to non-parametric and showed clusters in a truly consistent embedding. The downside is that it offers less tuning possibilities as compared to non-paramet
…
